split_framework/ckpts/l1_loss_norm.pth (torch, 683462 bytes, 14 tensors)

fc1.weight f4 [128, 676]
000000 ef 3a b1 be 1c 37 57 3e 39 fd 82 bb 7f 75 fc 3d
       -0.34615275 0.21017116 -0.0039974716 0.12327098
000010 92 b5 fd 3c 30 c6 de bd e4 9e 0e bf 44 14 8a 3e
       0.030970369 -0.10877645 -0.557112 0.26968586
000020 44 7c 04 3e 94 85 ab bd c1 90 ae bd ea 6f 90 be
       0.12938029 -0.083750874 -0.08523703 -0.28210384
000030 a1 ad b4 3e 53 3a e1 3c cc 7c d6 3d b8 83 eb bd
       0.35288718 0.027493631 0.10473022 -0.11499733
000040 7c d8 07 be 5b 5d b7 3d 99 e8 a7 bd a4 ea 92 3d
       -0.13266176 0.08953353 -0.08198661 0.071736604
000050 10 8b a3 3d 88 96 bf 3e e5 5b ac bb 36 df 5b 3e
       0.079855084 0.37419534 -0.005259978 0.21471867
000060 cf e3 83 be ae 9c 8e 3e 9f 53 b7 bd fa cb 8f 3d
       -0.25759742 0.27853912 -0.08951496 0.07021327
000070 a0 d5 3f bd b4 46 22 be 43 71 c6 3d b8 80 6a bc
       -0.046834588 -0.15847284 0.09689572 -0.0143129155
000080 f9 bb 9c be b5 c0 82 be 3b f7 d0 bc 74 9e 08 3d
       -0.30612162 -0.2553765 -0.025508514 0.033354238
000090 02 d8 ee bd a0 41 a5 bd 03 02 67 bd 0a 8c 9d 3e
       -0.11662294 -0.080691576 -0.056398403 0.30770904
0000a0 db b6 0f 3e da 11 b2 3d 21 bf 0c 3e 92 a0 78 bc
       0.14034598 0.08694811 0.13744785 -0.015175002
0000b0 46 95 21 3e 88 70 a1 3e a5 0e 48 3e 10 20 dd 3d
       0.157796 0.31531167 0.19536836 0.10797131
0000c0 cc b7 b6 3d 98 9a 51 3e d7 d4 0d 3d 07 a4 a0 bd
       0.08921775 0.20469129 0.034626808 -0.07843786
0000d0 fa 59 bf bd 50 5e 66 3e 20 a7 61 bd 1f 82 33 be
       -0.093433335 0.22496915 -0.055091023 -0.17530106
0000e0 d2 24 f1 bd 81 33 fe 3d 41 b0 b9 3d 79 26 5f be
       -0.11774601 0.12412167 0.09066821 -0.2179202
0000f0 2d 4f 84 3e 60 a0 77 bc 70 98 8a 3e 0b 85 88 3d
       0.25841656 -0.01511392 0.27069426 0.06666001
000100 3b 23 fc bd a1 c2 16 3e b2 bc 85 3a 4c f4 63 bd
       -0.12311407 0.14722683 0.001020333 -0.0556529
000110 cc 99 80 3e 2f 85 1c be f9 3b 85 bd 3d d4 9a 3d
       0.25117338 -0.1528518 -0.065055795 0.075600125
000120 28 34 bb bd 1e c6 42 bd 2d 69 87 bc 29 d2 ba 3d
       -0.091408074 -0.04755222 -0.016529644 0.09122116
000130 ae cb 5c bd 57 af b3 3d d6 e0 ea bc fc d5 69 be
       -0.05390518 0.08773678 -0.028671663 -0.22835535
000140 2b a1 ae 3d 09 bb 01 3e c1 cf 83 3e 13 d4 08 3d
       0.08526834 0.12669004 0.2574444 0.033405375
000150 5b 47 80 3d af fa ac 3e b7 0e f4 bd d4 29 4b 3d
       0.0626361 0.33785006 -0.11916869 0.049600437
000160 f7 9c bc 3d 48 fb e5 3d 04 64 b3 3d 62 1c 55 bd
       0.09209626 0.11229569 0.08759311 -0.05202902
000170 17 8c c1 bd 56 78 95 bd 89 e5 5a 3d d0 2b 44 be
       -0.09450548 -0.07298343 0.053441558 -0.19157338
000180 0c cd 79 be 44 2e fb 3d bc 7c 3d be ca a4 0b 3e
       -0.24394625 0.12264684 -0.18504614 0.13637081
000190 ac c8 af bb 3c 27 94 3e fb de 99 3d cd 43 cb 3c
       -0.005364498 0.28936183 0.07513233 0.024812603
0001a0 9e 05 05 bd e5 cb 0f bd 84 d3 81 3d 6e 88 1f 3e
       -0.03247606 -0.03510656 0.063391715 0.15579388
0001b0 a0 9f f6 bc 7b 64 1d 3d 37 ea 86 bb 50 bb c1 bd
       -0.030105412 0.038425904 -0.004117276 -0.09459555
0001c0 e8 8c c9 3b 80 84 9a bd 97 25 ba 3d d0 21 56 3d
       0.0061508305 -0.075448036 0.09089201 0.05227834
0001d0 95 30 92 3e 81 5e 33 be ed ac ad bd 5c ab d0 bd
       0.2855269 -0.17516519 -0.084802486 -0.10188934
0001e0 22 93 d0 bc f8 2c 92 3d 8d 4f 60 be 74 c2 86 bd
       -0.025460783 0.07137483 -0.21905346 -0.06580058
0001f0 1d b9 c8 be e2 97 c5 bc 23 f4 05 3d 96 3a 87 bb
       -0.3920373 -0.024120275 0.03270353 -0.004126857
000200 99 2a f3 3d e1 46 ac 3c e0 70 f7 bd fc 48 85 bd
       0.11873359 0.021029891 -0.12082076 -0.06508061
000210 01 f7 50 3d b6 fa a0 bd 8d 31 b2 3c 58 00 48 3e
       0.05101681 -0.07860319 0.021752143 0.19531381
000220 d9 7c b7 b8 4d 9f 5b bc 55 f3 b4 3d e7 e1 18 3e
       -8.749375e-05 -0.0134046795 0.088354744 0.14929925
000230 80 07 85 be e2 25 ef bd 0f 89 2c 3d dc e0 7d bd
       -0.25982285 -0.116771474 0.042122897 -0.06198202
000240 ed 4b 55 be b0 a9 78 3d d9 77 05 bc 76 f5 0b be
       -0.20829745 0.0607087 -0.00814625 -0.13667855
000250 80 1b 77 be bd 59 53 be f9 9b 16 bc 2f 52 1b bb
       -0.24131584 -0.20639701 -0.00919246 -0.0023700108
000260 08 62 b8 3d 1a 92 5b be 21 26 2b 3e a3 68 5b 3d
       0.09003073 -0.21442452 0.16713764 0.053566586
000270 17 4d d9 bb 05 89 bf bd ce 8f cb bd 43 17 91 3c
       -0.0066315043 -0.09352306 -0.09939538 0.017711287
000280 91 46 e3 3c dd 34 b2 3d 70 9a 26 bd 5a 13 f8 bb
       0.02774361 0.08701489 -0.040674627 -0.0075706663
000290 d1 67 b7 bd cb 98 fd bd 8c e5 91 3d 97 aa 2a be
       -0.08955348 -0.123826586 0.07123861 -0.16666637
0002a0 dc fe 03 3e cd 22 ed bc a2 01 d1 bd 8d bb 1c be
       0.1289019 -0.028947258 -0.102053896 -0.1530592
0002b0 68 76 e3 bd dd c5 32 bd d7 65 60 3c 50 20 83 bb
       -0.111065686 -0.04364573 0.0136961555 -0.0040016547
0002c0 63 87 03 bd e9 05 5c 3d 4b c0 13 3e f1 4b 4a bd
       -0.032111537 0.053716574 0.14428823 -0.04938883
0002d0 2d 99 81 ba b5 dc a1 3d 84 87 b5 3d 06 f5 03 be
       -0.0009887569 0.07903425 0.08863738 -0.12886438
0002e0 bd 0f 34 3c b0 0b 8c 3d fb e0 af bb a2 51 0e 3b
       0.01099008 0.06838167 -0.005367396 0.0021716137
0002f0 c9 96 b7 3c f6 21 38 bd 0b 61 b4 3d e9 57 6a bc
       0.022410767 -0.044954263 0.08807572 -0.014303186
000300 cc 7f c4 3d 58 e4 e4 bd 9b 44 c5 bc f3 50 a0 3d
       0.09594688 -0.111763656 -0.024080565 0.0782794
000310 94 2e 22 bd e7 2d 25 be e1 93 6c 3d de 13 75 bb
       -0.0395952 -0.16130792 0.057758216 -0.0037395875
000320 76 55 3e 3d 8e 14 a9 3c 12 a8 cd 3d e6 52 b3 3d
       0.04646822 0.020639684 0.100418225 0.08756046
000330 5d 92 cf bc d3 01 e7 bd 8b 93 5c 3d fd dc 34 bc
       -0.025338346 -0.11279645 0.053851645 -0.011039016
000340 2c 4e 92 bd ae ec 05 be 2b 5d 13 bd 1d 4d 08 bc
       -0.07143816 -0.13078567 -0.035977524 -0.0083191665
000350 e1 04 d4 3c 4e ad 8c bd f7 d8 13 3d c2 56 42 bc
       0.025881233 -0.06868993 0.036095586 -0.011861505
000360 04 4d c8 3d 7b 2d 56 3d 8e d1 48 bc 43 ba 4c 3d
       0.097803146 0.052289467 -0.012256993 0.04998232
000370 4c 1f 28 bd fa 62 21 3d 90 92 01 bd 34 ee 2d bc
       -0.041045472 0.039401032 -0.031633914 -0.010615874
000380 26 b6 e4 3c a6 72 b5 3b 51 d9 32 bd 8d bb 57 bd
       0.027918886 0.005537349 -0.04366428 -0.052669097
000390 c2 9b fa ba b1 15 98 3d b4 8e dd 3c ff 97 07 3c
       -0.0019119906 0.07426012 0.027045585 0.008275985
0003a0 04 66 84 3d 04 f8 38 3d 70 12 16 bd 75 1f 70 3d
       0.064647704 0.0451584 -0.036638677 0.05862375
0003b0 db 5b 6d bd 50 d9 3a bd 10 93 69 3d 54 fe 7a 3b
       -0.05794893 -0.0456174 0.057025015 0.0038298564
0003c0 03 a4 30 3c ae f1 3c bd 21 16 50 ba 83 99 7c bc
       0.010781291 -0.04612892 -0.0007937868 -0.015417459
0003d0 34 f2 a7 3c 48 96 cc bd f2 32 07 3e 14 0d b2 bd
       0.020501234 -0.099896014 0.13203028 -0.08693901
0003e0 71 53 5d 3d 9a 63 f7 3c 2a 32 e3 bd 4b 4b 7c 3d
       0.054034654 0.03019886 -0.110935524 0.061595242
0003f0 85 c2 4a bc f4 14 e9 3b 4c a1 8e bc 0b 2f 29 bd
       -0.012375479 0.0071130935 -0.017410897 -0.04130463

fc1.bias f4 [128]
000000 41 81 81 be cc 48 4b be cd 97 4f be 95 a2 4c be
       -0.25293925 -0.19851989 -0.20272751 -0.19983895
000010 3f 8d 83 be 84 3e 9d be ed b2 6b be f3 52 6c be
       -0.256937 -0.30711758 -0.23017474 -0.23078518
000020 94 4c 85 be eb c8 50 be ad 4c a1 be c2 e7 a4 be
       -0.26034987 -0.20389144 -0.3150381 -0.32208067
000030 a9 0a 8f be 35 da 85 be 6f e8 9f be ea 1e a1 be
       -0.2793782 -0.2614304 -0.3123202 -0.31468898
000040 ef 05 bd be 62 3d 7a be 45 a9 22 be b0 84 f1 bd
       -0.3691859 -0.24437478 -0.15884884 -0.11792886
000050 03 0c c0 be 41 d9 a0 be 27 d9 9f be fc d6 c0 be
       -0.37509164 -0.31415752 -0.31220362 -0.3766402
000060 a3 6f 67 be 87 ab 5d be aa 6c 64 be 94 61 df be
       -0.2260118 -0.21647464 -0.22307077 -0.43629134
000070 8d 36 8a be d5 d9 b4 be d6 2f 45 be 06 31 68 be
       -0.26994744 -0.35322443 -0.19256529 -0.22674951
000080 ac 7d ce be eb 6d 95 be 5c eb 60 be e9 0e 40 be
       -0.40330255 -0.29185423 -0.21964782 -0.18755688
000090 12 f4 aa be a2 06 6b be 37 71 67 be 0d 71 20 be
       -0.33389336 -0.22951749 -0.22601782 -0.15668125
0000a0 fb 15 0c be dc 1e 90 be 7e 0b 83 be 93 e4 ab be
       -0.1368026 -0.28148544 -0.25594705 -0.33572826
0000b0 48 95 bb be 07 47 9a be 63 dc a4 be fe c6 a4 be
       -0.3663733 -0.30132315 -0.32199392 -0.3218307
0000c0 ca 4f 3c be 54 06 6c be 17 8d c0 be 9e 77 75 be
       -0.18389812 -0.23049289 -0.37607643 -0.23971412
0000d0 b6 7a 4e be 4f aa 67 be 12 1e 93 be a6 f3 6b be
       -0.20163998 -0.22623561 -0.2873388 -0.23042163
0000e0 cb 8a 89 be fe 28 9e be 77 16 91 be 3d de 5c be
       -0.26863703 -0.3089065 -0.28337452 -0.21569152
0000f0 b6 fe 8c be 9f db 89 be e1 82 c5 be 60 3f 97 be
       -0.2753808 -0.2692537 -0.38576415 -0.2954054
000100 0c 5a 54 be 12 f7 ab be b1 88 44 be 4e 36 a4 be
       -0.20737475 -0.33586937 -0.19192769 -0.3207268
000110 8c e5 3d be 37 23 15 be 51 4d 9a be b5 c4 8a be
       -0.18544596 -0.14564215 -0.30137113 -0.271032
000120 55 47 4f be 78 d9 bb be 08 2c a4 bd b7 0b 81 be
       -0.20242055 -0.36689353 -0.08016211 -0.2520425
000130 9b 64 91 be 52 a6 da be 21 8a a2 be c0 04 a1 be
       -0.28397068 -0.42705017 -0.3174601 -0.31448936
000140 83 62 7e be 8f 65 7b be df bc 5f be 62 f7 4b be
       -0.24842267 -0.2455046 -0.21849392 -0.19918588
000150 eb 30 68 be 60 bc 25 be a6 cb 23 be fd 65 9a be
       -0.2267491 -0.1618514 -0.15995654 -0.30155936
000160 0a 9c 92 be fe ad 48 be 6a 1d 8a be a9 d2 34 be
       -0.28634673 -0.19597623 -0.26975566 -0.17658485
000170 0f c6 a0 be 65 38 63 be 16 b5 40 be 4e 20 90 be
       -0.31401107 -0.22189482 -0.18819079 -0.28149647
000180 1f 89 70 be 59 db 1d be 11 46 4b be 97 8a 38 be
       -0.23489808 -0.15415706 -0.19850947 -0.18021618
000190 f7 f6 8d be 86 12 52 be 5a 3f 8f be 8c 6a 81 be
       -0.27727482 -0.20514879 -0.2797802 -0.252766
0001a0 8b ae 82 be 4c b5 76 be 45 6f b6 be 13 72 7c be
       -0.2552379 -0.24092597 -0.35631767 -0.24652891
0001b0 5c 85 55 be ab 0f a1 be 2c 3d 72 be 05 04 b8 be
       -0.20851654 -0.31457266 -0.23656148 -0.35940567
0001c0 10 78 bf be 58 d5 a5 be bb 40 60 be 93 f8 83 be
       -0.37396288 -0.3238933 -0.21899693 -0.25775585
0001d0 61 42 88 be b2 5e 7f be 71 70 91 be 63 9e 90 be
       -0.26613143 -0.24938467 -0.28406098 -0.2824584
0001e0 f9 85 90 be 85 e0 b9 be 68 ff c8 be 43 7d 9c be
       -0.28227213 -0.36304107 -0.3925736 -0.30564317
0001f0 31 77 b6 be 2d d2 55 be 5c fb 41 be 53 b8 00 be
       -0.3563781 -0.20880957 -0.18943542 -0.12570314

fcs.0.weight f4 [128, 128]
000000 7b 92 fc 3b 40 51 0f bd 29 16 2a be 05 02 21 3e
       0.0077078915 -0.034989595 -0.16610016 0.15723427
000010 0c 26 93 bd 41 86 0a bd 80 ed 67 3e 7d 5d 09 3e
       -0.07184991 -0.03381944 0.22649193 0.13414569
000020 72 8b ff bd 44 a7 bd bc 87 9b 3a 3e dd 85 15 be
       -0.12477769 -0.023151048 0.18223391 -0.14601846
000030 eb 2d 1c 3d b0 cf 3c bd b3 79 01 3e 3c e8 29 be
       0.03812973 -0.046096504 0.12644081 -0.16592497
000040 bc a2 b0 be 66 9d 70 bd 6c 7f 4a 3e 45 c7 8a bd
       -0.34499156 -0.058743857 0.1977517 -0.06776289
000050 14 85 15 3d b9 2a ad 3c 94 c1 0b be 76 b3 12 be
       0.036503866 0.021138536 -0.13648063 -0.14326271
000060 de 0d 12 be 17 29 bd 3d a7 cc f1 3c d8 f3 01 bc
       -0.14263102 0.09236353 0.029516531 -0.007931672
000070 19 d6 ff 3c 6c 09 d6 bd d2 fb c5 bc 97 d3 b9 bd
       0.03123002 -0.10451016 -0.024167929 -0.09073561
000080 12 f5 7f bc 5b 5c 42 bd c5 9d be bd 8d f5 06 be
       -0.015622394 -0.04745136 -0.09307436 -0.13179608
000090 cf ad dc 3d 3f c3 f5 bd 60 bb a8 bd 4b 17 5e bd
       0.10775339 -0.12000131 -0.08238864 -0.054221433
0000a0 d9 f9 c1 3d 8b 90 15 3d 96 e4 69 3d 21 71 9f 3d
       0.09471483 0.0365148 0.057102762 0.077852495
0000b0 dc bc cd bc bc 88 18 bd ed 1a 8a 3d 06 aa e0 bd
       -0.02511447 -0.037239775 0.06743417 -0.109699294
0000c0 f9 e1 20 3d 78 90 47 3e 95 94 99 3c bc 6d 0f 3c
       0.039278004 0.19488704 0.018747607 0.00875419
0000d0 34 8d 00 3d f5 45 f4 bc ea 88 d7 3b f8 1f 19 be
       0.03138466 -0.029818514 0.0065776007 -0.14953601
0000e0 f1 f1 f8 3d 7b fc 96 3d 62 a0 b6 bc 14 29 04 bd
       0.12155522 0.073723756 -0.022293273 -0.032265738
0000f0 88 12 fd 3d 79 50 44 be 9e f3 5d 3e c3 09 b7 3d
       0.1235705 -0.19171323 0.21674964 0.08937409
000100 92 2b df 3d 40 b8 c2 3c 00 6a 11 bd c2 37 1a be
       0.10896982 0.023769498 -0.03550148 -0.15060332
000110 cd d2 93 bb 35 7d 2b be 4e 31 20 3e e3 cc b1 bd
       -0.0045112134 -0.16746981 0.15643808 -0.08681657
000120 3a bb 7e bd b3 39 f1 3d 0d d8 9b bd 80 54 0b 3d
       -0.062190272 0.117785834 -0.07609568 0.034016132
000130 44 d9 22 3d dc a2 92 3d 5a 79 92 3b 5d f3 b1 bc
       0.039757982 0.07159969 0.0044700326 -0.02172249
000140 68 fd 54 3d 42 68 e3 bb 95 68 ad 3d 04 b1 44 3d
       0.05199948 -0.0069399187 0.08467213 0.048020378
000150 32 b8 3c be 4d fa e6 3c 93 3c 9e 3b 08 5a ce bd
       -0.1842964 0.028195525 0.0048289984 -0.10075766
000160 4c 57 c5 bd 2e 0c 34 be b6 61 e6 bc 6c d6 dd bb
       -0.09635791 -0.17582771 -0.028122764 -0.006769946
000170 a0 6a 35 3d 2e ea 7f be b8 af 2b bc cb 41 26 3c
       0.04429114 -0.24991676 -0.010478906 0.010147522
000180 5e 5c db bd 0a 25 3e 3c 17 ad c5 bc 50 6f 2b be
       -0.10710977 0.0116055105 -0.024130387 -0.16741681
000190 a8 9d bb 3d 35 28 b1 bd a6 43 bd 3d 09 c9 25 3e
       0.0916093 -0.08650247 0.092414185 0.1618997
0001a0 e2 4f 0c be 7b 4b 80 bd 6e ec 2e 3d 18 77 a3 bd
       -0.13702348 -0.06264397 0.042705946 -0.079817
0001b0 53 0d 10 be 04 e9 86 bd c1 e8 ad bd aa 50 86 3d
       -0.14067583 -0.06587413 -0.0849166 0.06558354
0001c0 c8 ee ed 3c 4b 6b f6 3c 89 48 f7 bd 39 15 5b bd
       0.029044524 0.030080458 -0.12074382 -0.053487036
0001d0 04 a5 c3 3c 39 e9 01 3e 77 02 15 3e 78 76 9d 3d
       0.023882397 0.12686624 0.14551722 0.07688612
0001e0 7d fe 57 be 0f ee ee 3d ac f1 3b 3b 9c 1e 58 bd
       -0.21093173 0.116665 0.0028677983 -0.052763566
0001f0 e0 f7 a5 3d 55 07 00 3d 0e 95 1f 3d 9e 0c 0c bd
       0.08103919 0.031256992 0.03896051 -0.03419172
000200 fd cb 8a bc 90 5f 2c bd db 21 7f 3d 58 0e c8 3d
       -0.016942972 -0.042083323 0.062288146 0.09768361
000210 74 b7 05 3e dd 03 d0 3d d4 a4 26 be 34 8d 9a bd
       0.13058263 0.10156987 -0.16273814 -0.075464636
000220 d1 1a 39 be ff 5c b1 3d fb 49 7d be df d7 88 bd
       -0.18076636 0.08660316 -0.24735253 -0.06681799
000230 78 84 0b bd fb 44 22 bc e3 93 67 bd 32 38 eb 3c
       -0.03406188 -0.009904142 -0.05653752 0.02871332
000240 67 f5 17 3b d8 0f 1c bd f4 f3 56 bb 38 9e 01 bd
       0.0023187043 -0.038101047 -0.0032799216 -0.03164503
000250 7f 98 0b 3d 18 09 00 3d e8 04 3e bd 40 be b9 bd
       0.03408098 0.031258672 -0.046391398 -0.090694904
000260 4a ae 26 3b 85 fb 30 be 64 cf 7f bd bc f0 f0 bd
       0.0025433474 -0.17283447 -0.062453642 -0.117646664
000270 5f c1 ef bd 2a 29 4d bd 2d e2 1c be e2 29 00 bc
       -0.117068045 -0.050088085 -0.15320654 -0.007822486
000280 e5 a3 4e 3c 2b dc 0c be ad ac 31 3b a0 ea ab 3d
       0.012612318 -0.13755862 0.002711098 0.083943605
000290 1b 89 de 3b 13 9c a7 bd 95 67 2a be 5b 59 4a bc
       0.0067912466 -0.08184066 -0.16641076 -0.012350406
0002a0 1b 8f 82 3d 3f e1 a9 3d e9 84 7b 3c 0f 83 17 be
       0.063749515 0.082949154 0.0153515125 -0.14796089
0002b0 e9 91 28 3e d4 66 5d 3e 98 4e cb 3d ad 93 21 bd
       0.1646191 0.21621257 0.099271 -0.039447475
0002c0 3f 06 b8 bd 3e b5 db 3c 52 81 92 bc 49 29 8f bc
       -0.08985566 0.026819821 -0.01788393 -0.017475741
0002d0 59 68 eb 3b 19 d3 06 3d 48 5b 62 bd 78 a8 95 bd
       0.00718407 0.032916162 -0.055262834 -0.073075235
0002e0 39 df a7 3c 57 d4 1e 3e 47 37 d5 bd b7 90 43 3c
       0.020492183 0.15510689 -0.10410934 0.011936358
0002f0 0b 83 1d bd b0 55 cb bc 07 5d 24 3e 52 ce d7 bd
       -0.03845505 -0.024821132 0.16051112 -0.10537399
000300 d1 d7 f1 3d c6 78 2d 3d 34 cf bd 3d b9 38 24 3e
       0.11808742 0.042351507 0.092680365 0.16037263
000310 09 79 14 3e 2c ec 5b bd 2e 26 67 bd 59 e1 28 be
       0.14499296 -0.053692028 -0.056432895 -0.16492213
000320 24 8f e5 3b 35 5b 00 be 95 2e b7 3d d5 c1 80 be
       0.007005589 -0.12534793 0.08944432 -0.25147882
000330 f3 53 5a 3d a3 e0 0f 3d 10 1b fe bc a7 84 d9 3d
       0.053302716 0.03512634 -0.031018764 0.106210046
000340 2a 38 6c bd 9a 18 28 be be a0 41 be 69 62 aa bc
       -0.05767075 -0.16415635 -0.18908975 -0.020798879
000350 0c 92 30 be b6 c8 a3 3d 5c c5 1a be 71 f4 12 3d
       -0.17243212 0.07997267 -0.15114349 0.03587765
000360 8a 17 77 3d f1 a4 c9 3d d5 b9 12 be 92 1f 01 be
       0.060325183 0.09845913 -0.14328702 -0.126097
000370 7d 54 ba 3d 56 89 f6 bd 08 73 61 3d 8c 57 b9 3d
       0.09098146 -0.120379135 0.055041343 0.09049901
000380 c0 1e 84 bd ea 0d db 3d 21 9f 1b be 66 76 0b bd
       -0.064511776 0.10696013 -0.15197422 -0.03404846
000390 67 9d 90 bd 06 a3 5e 3c 8e 2f a8 bd a9 e7 7e be
       -0.07061272 0.0135886725 -0.08212195 -0.24893059
0003a0 9c 08 7e 3e 97 f9 38 bd b1 45 1d bd fc db ae bd
       0.24807972 -0.045159902 -0.03839654 -0.085380524
0003b0 24 fc a3 bb f1 75 1b 3e 10 10 e4 bd 9f b8 64 3c
       -0.0050044227 0.1518171 -0.11135876 0.013960033
0003c0 70 a3 90 bd 28 e4 8b bd 1d 18 fa bd 34 40 e2 bd
       -0.07062423 -0.06830627 -0.122116305 -0.11047402
0003d0 9a cd c5 bd cf d7 33 3d e8 88 cc 3d 67 de aa 3c
       -0.09658356 0.043906983 0.0998705 0.020858003
0003e0 07 e7 7d 3d 08 6c 9e b7 11 ed 89 3d 22 70 09 3e
       0.061987903 -1.8885374e-05 0.0673467 0.13421682
0003f0 11 e5 95 3d 67 13 6c 3e fe ad ac 3c 07 4b ce bd
       0.073190816 0.23054276 0.02107906 -0.10072904

fcs.0.bias f4 [128]
000000 3d b5 4c 3d fd 47 83 bc 48 87 f5 bd cd d9 5c be
       0.04997753 -0.016025538 -0.119886935 -0.2156746
000010 1b c9 a9 3c de 6a 1e 3d 46 30 df bd aa 0b a2 3d
       0.020725777 0.038676135 -0.10897879 0.07912381
000020 e5 54 ad 3c 34 1b b8 bd ae f4 5d bd 86 5a fe bc
       0.021158645 -0.089895636 -0.054188423 -0.031049024
000030 c0 88 74 bd c1 be 25 3d f7 d7 04 3d b0 47 1c 3c
       -0.059700727 0.04046512 0.032432523 0.009538576
000040 95 6b 1c 3d f2 48 3a 3e 7f f2 77 3d b8 29 d1 3a
       0.038188536 0.18191889 0.060533997 0.0015957868
000050 be 0e b3 bd ef 76 b9 3c 36 1c af 3b 2e 8d 47 bd
       -0.08743046 0.02263972 0.005343939 -0.048718624
000060 84 4a 32 3d 47 d4 e1 3d 58 bb d8 3d 2f 7f ea bc
       0.043528095 0.11026817 0.10582608 -0.028625099
000070 70 eb ac bd 19 68 5d 3c 8f e9 0d 3e 0b c5 8d bd
       -0.08443344 0.013513588 0.13858627 -0.069223486
000080 da da 62 3d 11 3d b4 3b bf 02 40 3d 8d 73 c2 bd
       0.055384494 0.0055004437 0.04687762 -0.09494696
000090 35 26 8c bc ef d4 1f bd b4 a1 10 3e 82 1e c9 bc
       -0.017108062 -0.03902143 0.14124185 -0.02455068
0000a0 9c 59 20 3e 56 4f 02 3e 46 df 07 3b 96 06 16 be
       0.15659183 0.12725577 0.0020732447 -0.1465095
0000b0 87 86 a0 3b a2 3d f6 ba a9 e5 5c 3d 4b 1b 2d bd
       0.0048988494 -0.0018786679 0.05392996 -0.042262357
0000c0 12 e0 a6 3b a4 cb dc bd 01 e6 04 3e 9c 50 2e 3d
       0.005092629 -0.10781029 0.12978365 0.042557344
0000d0 6f 62 2b 3c 6d 9a 3c 3c 7d 6b c9 bc e8 c8 d2 3d
       0.01046048 0.011511427 -0.024587387 0.10292226
0000e0 c4 ad 25 be 88 9d 0a be 3b 3c 04 bc 75 ef e1 bd
       -0.16179568 -0.13536656 -0.008071001 -0.11032001
0000f0 67 11 d2 3d 8f aa 9f 3b 91 f7 2d 3d a4 db b6 3c
       0.102572255 0.004872627 0.042472426 0.02232153
000100 91 17 cc 3c 3b de 8a bb d6 d3 f4 bd 0f 4f 2e 3c
       0.024913581 -0.0042379177 -0.11954467 0.010638966
000110 b4 5e 36 3d ac dd ff bd 9f 5a c8 3b 43 e1 c4 3d
       0.04452391 -0.124934524 0.0061143185 0.09613278
000120 bf 47 0f 3d 4f e9 48 bd 62 67 c4 3c 45 41 6d 3d
       0.03498053 -0.049050625 0.023975078 0.057923574
000130 79 9b 0a bc 75 8e 62 3d 37 fa bd 3a e9 8a 04 3d
       -0.008459919 0.05531164 0.0014494125 0.032359038
000140 81 16 74 3c fc 0c 15 be fb 19 9b 3c c1 1c e7 3d
       0.0148979435 -0.14555734 0.018933287 0.11284781
000150 3f 6b b4 bd 16 79 1d be a8 17 4d 3e 8c a4 52 3c
       -0.08809518 -0.15378222 0.20028555 0.012856614
000160 56 5a 1a 3c 81 85 69 3c 71 16 e9 39 11 fc 5c 3e
       0.009420952 0.014253021 0.00044457943 0.2158053
000170 95 c3 08 be 48 c5 cb bd 0a 65 8f bd 77 31 06 3d
       -0.13355859 -0.09949738 -0.070016935 0.032762017
000180 fa fc 2c ba a3 ae 09 3e ee 0e e2 bd f1 e2 00 bd
       -0.0006598976 0.13445525 -0.11038004 -0.03146643
000190 98 91 34 3e 0c c0 ac 3d e0 51 79 3c 08 39 d9 bc
       0.17633665 0.084350675 0.015217274 -0.026516452
0001a0 cc 3e fb 3b a9 0c ef 3c ab 53 c3 3d 69 a6 b9 bd
       0.007667398 0.029180842 0.09537443 -0.09064943
0001b0 ab e8 11 be 8e cb 56 bc 5b 4b 07 3e 11 3f b2 3d
       -0.14248912 -0.013110055 0.1321234 0.08703435
0001c0 0b 6a d6 3c a5 3f 81 bd 02 56 0e 3c 64 68 0a be
       0.026173612 -0.06310967 0.008687498 -0.13516384
0001d0 83 d2 b7 bd 07 3b b3 bc 7d fd a4 3c 4a 3b b1 bd
       -0.08975699 -0.021878732 0.020140404 -0.086538866
0001e0 da 60 de 3d ed 4b 31 3c a4 43 8f bb 37 1e 36 be
       0.10858317 0.010821325 -0.004372077 -0.17784964
0001f0 48 7d b9 3b 92 bd 5b 3d 5a 8c 97 3c 01 dd 31 be
       0.0056606866 0.053647585 0.018499542 -0.17369463

fcs.1.weight f4 [128, 128]
000000 be 5b 0c bd 47 a6 35 3d 71 09 d7 3b fb 98 8c 3b
       -0.03426718 0.044348028 0.006562405 0.0042906976
000010 44 c1 19 be 37 94 b9 bd 08 a8 be bc 14 68 86 3d
       -0.15015131 -0.09061473 -0.023273483 0.0656282
000020 c2 40 26 bc 72 38 d8 3d aa fc 1d be b0 e2 65 be
       -0.010147275 0.10557641 -0.15428415 -0.22449756
000030 c1 d6 92 bd ff 1a fe bd 00 1f 44 bd 9e ad 7a 3c
       -0.07169867 -0.12407493 -0.047881126 0.015300183
000040 19 48 39 bc f4 14 f4 3b 1a f6 72 bd 5e 64 b8 bd
       -0.011308693 0.007448787 -0.059316732 -0.090035185
000050 dd d7 ac 3c e4 68 b0 bc d6 db b2 3c ff c3 b3 bd
       0.021099025 -0.02153439 0.021833342 -0.08777618
000060 d8 ff 89 bd bb 7f bd bd 4a e6 b6 bd 83 8f 4c bd
       -0.067382514 -0.09252878 -0.08930643 -0.04994155
000070 67 ad 24 bd cb 45 a0 bb ac 60 54 bc f9 1a b7 bd
       -0.04020443 -0.0048911325 -0.0129625015 -0.089406915
000080 e5 c9 c6 3d cb 7e 00 be 4b 35 72 3c 1b 11 25 bd
       0.09706477 -0.12548368 0.014783214 -0.040299516
000090 ec b0 5f 3d 16 8c b7 3a 01 04 23 3d 1d 8b 15 be
       0.054612085 0.0014003541 0.03979874 -0.14603849
0000a0 82 0c ae bd b9 93 4c bd 23 95 a9 bd 4a 04 81 bd
       -0.084984794 -0.049945567 -0.08280399 -0.06299646
0000b0 87 45 93 3d 47 45 3b bd 8b 56 60 3d 90 ba 01 be
       0.07190996 -0.045720365 0.054770034 -0.12668824
0000c0 32 0c 75 3d 04 cd 39 bd a8 c1 e8 bd b7 fa 43 bd
       0.059826083 -0.045361534 -0.11365062 -0.047846522
0000d0 6e fa 07 bc 49 3e 55 bd 37 b2 98 bc c7 06 d7 3c
       -0.008299453 -0.052061353 -0.018639667 0.026248349
0000e0 3c 70 1a be 7d fc 16 bd ae 04 39 be 6b b4 69 bd
       -0.15081877 -0.036861885 -0.18068191 -0.057056826
0000f0 23 14 04 3d 94 dc 8c bd cd fc 69 bd b9 c5 ae bd
       0.032245766 -0.068780094 -0.057125855 -0.08533806
000100 46 3b 00 be 0b 41 70 bd 45 a3 f1 bd 26 55 c6 3d
       -0.12522611 -0.05865578 -0.11798719 0.096842095
000110 0d dd d0 3b ec 96 13 3c 2a 93 9a bd 88 a9 6f 3d
       0.0063740076 0.009008151 -0.075476006 0.058511287
000120 25 5c 34 3d 34 c6 30 bd 8f ba 63 3c 4e 51 02 be
       0.04403319 -0.04315777 0.0138994595 -0.12726328
000130 03 8e c6 3c b9 da 15 bd 0b 5e 02 bd 2e eb 2c bd
       0.024237638 -0.036585543 -0.031827968 -0.042216472
000140 48 46 4a 3d 2d f1 c7 bc 5c ec 96 bd ed 6b 07 3d
       0.04938343 -0.024406994 -0.07369301 0.03306191
000150 56 b9 0c 3d 46 64 99 bd 98 67 a3 3d d2 cc 08 3e
       0.034356438 -0.07489829 0.07978743 0.13359383
000160 da 61 c7 bc f3 4c 2b be 4f 39 17 bc bf 15 b7 bd
       -0.024338651 -0.16728573 -0.009229972 -0.089396946
000170 8b 20 f1 bd d1 7b 22 3c 8d 70 6b 3d 2d 36 d6 3d
       -0.11773785 0.009917215 0.057480384 0.10459552
000180 2f bf b7 3d 5c 92 ac bd bf 4d d7 bd 01 87 8e 3d
       0.08972012 -0.08426353 -0.10512876 0.06959344
000190 75 59 69 3b 70 ee 09 bb 44 a4 c6 bd e7 eb 8c 3c
       0.00356063 -0.002104666 -0.096993 0.01720233
0001a0 ba 10 0a 3d 44 94 36 3d e1 db 67 bc 3a f4 27 bd
       0.033707358 0.04457499 -0.014151544 -0.041004397
0001b0 72 1b 73 3c 7b c1 c4 bd 76 77 bc bd 4b 48 7a 3d
       0.014838086 -0.09607216 -0.09202473 0.0611041
0001c0 ad d4 4b 3d 16 4c d7 bd a0 a6 32 bd 37 77 0f bd
       0.04976337 -0.10512559 -0.043615937 -0.0350258
0001d0 eb 32 09 be b1 5e c8 bd 87 aa 1d be d6 de ca 3b
       -0.1339833 -0.09783686 -0.15397082 0.006191115
0001e0 11 ea 2a bd dd 7d b0 3d b5 75 27 bd 5b 9a ea bc
       -0.04172713 0.086177565 -0.04088374 -0.028638056
0001f0 79 43 ea bd 4a 65 c2 3d c3 ed 61 3d 6d bb 38 be
       -0.11438651 0.094919756 0.055158388 -0.18040247
000200 10 ed 72 3d 4d b5 78 3d 42 a6 dc bb 2c 0f bc 3d
       0.05930811 0.060719777 -0.0067336867 0.09182581
000210 b2 a0 dc 3d be b9 3d 3d 75 ba 81 bc 40 44 e8 bd
       0.10772838 0.046319716 -0.01583598 -0.11341143
000220 65 81 f7 3b 4f 3c 19 3d 09 7f 35 3d 2b 73 02 3d
       0.007553267 0.03741103 0.044310603 0.031848114
000230 96 b9 1e bc 44 44 be 3d ca 70 04 be 5c ea 15 3e
       -0.009687802 0.092903644 -0.1293365 0.14640182
000240 1e 0f 94 3d 50 23 c1 bd 4d e4 07 3d 38 a3 8d 3d
       0.07229446 -0.094305634 0.03317671 0.06915897
000250 fc 67 07 3e 4b 42 53 3c 47 84 22 3e 18 ab 85 3d
       0.1322326 0.012894223 0.15870772 0.06526774
000260 3c d0 a6 3d 1d 5c cd bb 31 39 ad 3d 12 72 20 3e
       0.08145186 -0.0062670843 0.08458174 0.15668514
000270 a3 83 4d bd a4 66 82 3d c0 93 89 3d cd 04 75 3d
       -0.050174367 0.063672334 0.06717634 0.05981903
000280 3c d6 ef 3d a9 78 b9 3d 0e 3d d8 3c 06 df 28 3d
       0.11710784 0.09056217 0.0263963 0.041228317
000290 35 b6 a1 3c 9c c7 05 3d 3a 97 20 be e2 91 87 3c
       0.019740203 0.032661065 -0.15682688 0.016549055
0002a0 67 f5 86 bc a2 79 ed bd 50 2f ac 3d e8 39 76 bd
       -0.016474439 -0.11595465 0.08407462 -0.060113817
0002b0 4e 57 8e bd da a8 90 bc e8 f0 bd 3c 54 2d e5 3c
       -0.06950246 -0.01765864 0.023186162 0.027975716
0002c0 a3 ce 7d 3d c3 e9 81 bd 13 dc cc bd 34 1a a4 ba
       0.061964642 -0.06343415 -0.10002913 -0.0012520016
0002d0 68 ac 7b 3b 91 b7 1e 3e da a1 07 3d 1a 93 a5 3d
       0.0038402323 0.15499713 0.033113338 0.08084698
0002e0 a2 4e 54 bd 6b 9e 6c bd 89 47 0b 3d f6 71 94 3d
       -0.051832803 -0.057768267 0.034003768 0.07248299
0002f0 ea 6c 82 3d 86 50 3b 3d 70 6e dd 3d e3 16 0a 3e
       0.0636843 0.04573109 0.1081208 0.13485293
000300 55 e9 dd 3d 23 5c b4 3d 31 21 6d 3d 4d d6 05 3e
       0.1083552 0.08806636 0.057892982 0.1307003
000310 cf ca 23 3d 48 ff 94 3d 1e 01 0c 3e 97 c5 66 3c
       0.039988335 0.072752535 0.13672301 0.014085195
000320 8c 1c 7b 3d 76 ad f3 3c f0 2d b3 3d 30 14 29 3d
       0.06130652 0.029745799 0.08748996 0.041279018
000330 e6 e9 b6 3d e5 a2 3d 3d 03 b9 b6 3d b9 3d 95 3c
       0.08931331 0.046297926 0.08922007 0.018217908
000340 17 a5 01 3e e6 f6 ee 3d 50 91 43 3d 88 dd 0a 3e
       0.12660633 0.11668186 0.047746003 0.1356107
000350 cd f3 d1 3d a7 ed 8d bd c0 ee 20 be f2 6a eb 3d
       0.102515794 -0.06930094 -0.15716076 0.114950076
000360 4a 6c 04 3d a5 0b 9c 3d 58 2c 83 bd 43 d8 94 be
       0.032329835 0.076194085 -0.06404942 -0.29071245
000370 28 37 bb bc 83 ac 5c bd 19 bc c3 3c 6f b9 37 3e
       -0.022853449 -0.053875457 0.023893403 0.17941831
000380 7c e1 cb 3d 36 89 c9 3c 26 70 b5 bd 46 41 8c 3d
       0.09955117 0.02460156 -0.08859281 0.068483874
000390 88 dc ae bc e5 03 a7 3c 7e b8 8f 3d 36 da ca 3d
       -0.021345392 0.0203876 0.07017611 0.09904902
0003a0 4e 1d 6f 3d 02 c9 e2 3d e5 61 f8 bd 15 db a6 3d
       0.058377557 0.110734954 -0.12128047 0.08147255
0003b0 d4 40 f2 3c c3 50 8a bd 1d fd 27 3e 14 24 18 3e
       0.029571928 -0.06753685 0.16405149 0.14857513
0003c0 8f 38 e5 3b 5d e3 d0 3d cc 76 af 3d b8 01 49 3d
       0.0069952677 0.10199616 0.085675806 0.049073905
0003d0 65 2d 6b 3d 12 8c 99 3d a9 43 d7 bc 37 3d f6 bc
       0.05741634 0.074974194 -0.02627738 -0.030058486
0003e0 fe ec 37 3d 83 dd d8 3d f3 fe 09 3e 26 fc 19 ba
       0.044903748 0.10589125 0.13476162 -0.000587406
0003f0 f1 65 50 bb c0 52 db bc 4f bf 1f 3e cc 20 ca 3b
       -0.0031799043 -0.026772857 0.15600322 0.0061684605

fcs.1.bias f4 [128]
000000 5d 0f 51 3c e4 8e 9e 3d 8c 3a 82 3d 0a 34 ac 3c
       0.012760011 0.07742098 0.06358823 0.021020908
000010 7f c3 01 be 91 89 15 bd 8a 66 bb 3d e7 92 05 bd
       -0.12672232 -0.036508147 0.09150417 -0.0326108
000020 1f fd ac bc 79 04 d6 bd a9 73 6e bc 48 3b 55 3d
       -0.021116791 -0.10450072 -0.014553943 0.052058488
000030 5f 9c ce 3c 38 68 8f bd fc 1b 58 bd 88 57 ae 3d
       0.025221048 -0.070023 -0.052761063 0.08512789
000040 f9 3f 53 be a6 ca 89 bd 7b d8 8d 3c 67 f9 b8 bc
       -0.20629872 -0.06728105 0.01731514 -0.022579862
000050 c5 34 25 bd 55 c2 1b 3d ed f8 31 3d 06 ba 13 3e
       -0.040333528 0.038027126 0.043450285 0.14426431
000060 1a 7d cb bd 50 64 e6 3b 6d 61 8e 3b ce d3 32 bd
       -0.099359706 0.007031001 0.00434511 -0.043659024
000070 ed c5 9a 3e 8e ee f8 bd c9 8d 82 bd 4e 6f a9 bd
       0.3022913 -0.12154876 -0.063746996 -0.08273183
000080 ef f8 04 bd 0c 7a 88 3d d3 15 7a 3d dd 11 2e 3d
       -0.032463964 0.066639036 0.06105597 0.042497505
000090 66 0a 1b bd 43 5b 43 3b 7f cf 9a bd 98 5e 8a 3d
       -0.037851714 0.0029809035 -0.07559108 0.067563236
0000a0 dd df 2c bd 95 8a 2b 3c 29 bb f1 bb 9a 0e 8f 3d
       -0.04220568 0.010470052 -0.0073770476 0.06985207
0000b0 ab a5 6d bc a6 68 9b 3d b9 70 92 bc 7e 24 c1 bc
       -0.01450483 0.075883195 -0.017876016 -0.023576971
0000c0 a4 95 c6 bd ac 75 d5 bd 48 da bb bd 00 e5 04 3d
       -0.096965104 -0.10422835 -0.09172493 0.032444954
0000d0 e9 f9 d2 bc 1b 3c 84 bc 34 ff 25 3e 36 49 93 3d
       -0.025753932 -0.016141942 0.16210634 0.07191698
0000e0 26 1d 8a bc b3 ab 9e bd 76 2e 10 3e e9 e6 a0 bc
       -0.016859602 -0.07747593 0.14080223 -0.019641357
0000f0 e9 79 9d bd 92 64 e0 bd 8c 70 87 3c 8c 4e be bb
       -0.07689268 -0.10956682 0.016533159 -0.0058077034
000100 bd 17 8f 3d 20 1e 1c 3e c4 35 02 be b2 a8 fe bd
       0.069869496 0.15245867 -0.12715822 -0.1243452
000110 cf e2 75 bd fa b7 f5 bc ce 4e 68 bd f6 15 41 3d
       -0.060030755 -0.029994953 -0.05671578 0.047140084
000120 27 c7 aa 3b 68 0d 10 3e f8 a7 62 3d 54 ec 2c be
       0.005211729 0.14067614 0.05533597 -0.16887027
000130 ba 38 85 bd 11 75 90 3e 32 88 30 3c d2 a8 7b 3d
       -0.0650496 0.28214315 0.010774659 0.061440296
000140 7c cc 13 3b fd 55 04 be 1f 8c 8b 3d b4 91 0a bd
       0.0022552302 -0.12923427 0.06813835 -0.03383036
000150 62 d1 e8 3b cb d1 d9 bd bd 23 ab 3d 30 e9 29 bd
       0.0071050385 -0.10635718 0.08356426 -0.04148215
000160 95 fb 62 bb 2c 95 09 3e 0c d9 0c bd 01 05 f0 bc
       -0.0034634818 0.13435811 -0.03438668 -0.029299261
000170 af 9b 7d 3d 1b b3 36 3d a1 7c 0b be 83 26 73 bd
       0.06191605 0.044604402 -0.13621761 -0.0593629
000180 87 61 34 bd c9 fd 89 3d fe ca 93 bd eb 97 3a 3d
       -0.04403832 0.06737859 -0.07216452 0.045555037
000190 5f 80 77 bd e3 0b 0d bd 37 0f d3 bc 85 dd da bc
       -0.06042516 -0.034435164 -0.025764091 -0.026716957
0001a0 3b f9 b7 bc 68 4e 4a 3d c2 fd ae 3d 46 d8 b8 3b
       -0.02245771 0.04939118 0.08544494 0.005641016
0001b0 50 48 02 bd 97 c7 67 bc 42 02 29 3d 76 9c 4c bd
       -0.031807244 -0.014146707 0.04126192 -0.0499539
0001c0 d6 49 50 bd f7 25 32 3e 8a bc 25 bd fc 29 ee bc
       -0.050851665 0.17397295 -0.040463008 -0.029072754
0001d0 dd 45 fd bc a1 8d e5 bc 5a 2a 4f be cd 5f c6 bc
       -0.030917102 -0.028021635 -0.20231 -0.024215603
0001e0 7e d9 6a bc d1 2d e7 bb 92 d5 da ba e7 8e cf bd
       -0.014334081 -0.0070550223 -0.0016695729 -0.10134678
0001f0 f9 24 34 3e e5 91 ed 3c dc 08 f0 3a d6 39 8e 3b
       0.17592229 0.029000232 0.0018313187 0.0043403907

fcs.2.weight f4 [128, 128]
000000 87 51 6d 3d e4 02 af 3c 0a 2c 5b bd 2c d7 c1 ba
       0.05793908 0.021363683 -0.053508796 -0.0014788858
000010 18 1b 88 bd 42 93 49 bd cc cb 3c bd f5 66 79 3d
       -0.06645793 -0.0492127 -0.046092793 0.060889203
000020 cf dd ec 3c 06 7f aa bd e1 57 a0 bd 6d 1a 66 bd
       0.02891436 -0.08325009 -0.078292616 -0.056177545
000030 67 83 c2 bc 17 73 77 bd 68 12 7f 3d 2e 78 84 bd
       -0.023744298 -0.060412493 0.062273413 -0.06468235
000040 77 f6 49 bc 2d b4 25 3d 68 d0 f7 3b 15 8a 3b 3d
       -0.012326828 0.040455032 0.0075626858 0.045785982
000050 17 93 cd bc 6e 8f 91 3c 55 b8 86 3b fe fb 48 3c
       -0.025094552 0.017768588 0.0041113296 0.012267111
000060 a5 c9 b2 bd 34 f8 f4 bd 46 8f 60 bd 22 33 7c bd
       -0.08729867 -0.119614035 -0.054824136 -0.0615722
000070 4e 1b 25 be ef bb a2 3d 07 ff be bd 2f 96 50 3b
       -0.16123697 0.07946002 -0.09325986 0.0031827798
000080 22 47 a7 bd 32 4c 2b 3d a7 89 eb bd 57 ff 38 bd
       -0.081678644 0.041820712 -0.115008645 -0.045165386
000090 4b 24 02 3d c3 22 13 bd 15 23 9b bb 85 c1 0b bc
       0.031772893 -0.035921823 -0.0047344067 -0.008530025
0000a0 82 d2 b1 3d 79 bc ec 3c 7c 8f 14 3d d0 d8 e6 bd
       0.08682729 0.028898465 0.03626965 -0.112718225
0000b0 cd ba 10 bc 0a 11 bd bd 64 48 10 3d 46 f2 12 3c
       -0.008833599 -0.092317656 0.035225287 0.008968895
0000c0 73 b3 11 3c 4e 64 90 3c 20 51 9d bd 25 10 ec 3c
       0.008892882 0.017625954 -0.07681489 0.028816292
0000d0 b7 f2 bb bc 62 ee 8b bd 42 be 9c 3b ca 1b c0 3a
       -0.022942884 -0.06832577 0.0047834227 0.0014656719
0000e0 6f 93 50 3d 03 2c 61 3d 69 04 cc 3c bb 23 d1 bd
       0.050921854 0.054973613 0.024904447 -0.10211893
0000f0 30 16 cf bd 6c 9b 93 bd ec 50 13 3c f3 39 55 bb
       -0.10111654 -0.07207379 0.008991461 -0.003253576
000100 98 25 8a bc dd 3a 6b bc 55 f7 b0 bd 14 4b 51 3d
       -0.01686363 -0.014357296 -0.08640925 0.05109699
000110 e5 36 84 bd 69 69 37 3d 3d 27 df 3c 1f 39 c9 bd
       -0.06455783 0.04477826 0.02724039 -0.09825348
000120 5d a6 eb bd ea 02 e9 bd 9a 1d 51 3d 38 7e 61 bd
       -0.11506341 -0.11377509 0.05105362 -0.055052012
000130 d8 ef 8c bd 50 2f 7c bd 8c cb a3 bb e5 26 50 3d
       -0.06881684 -0.06156856 -0.00499863 0.050818343
000140 84 7c e1 bb 7c 1e e4 3c 41 c0 88 bc 36 b7 9b 3c
       -0.0068812985 0.027846567 -0.016693236 0.01900826
000150 31 9f 6c bd 8d c2 66 bd ed dc 8c bd 4f 13 5d 3d
       -0.057769004 -0.05633788 -0.06878076 0.053973492
000160 58 53 3e bd 90 f2 15 bd b4 57 b2 3b 5c 3f 03 be
       -0.0464662 -0.03660828 0.005442584 -0.12817138
000170 86 1a 3b bc 47 19 21 be 08 54 34 bd a9 fc 2e bd
       -0.011419898 -0.15732299 -0.04402545 -0.042721424
000180 6f 7e 91 bd bc 11 70 3d a6 8f 81 bd 1f 6e 52 bd
       -0.071041934 0.058610663 -0.06326227 -0.05137455
000190 bb c2 6a bd 3a cc 7e bd 1b a9 24 be db 2a f4 ba
       -0.057314616 -0.062206484 -0.16080134 -0.0018628495
0001a0 9d a3 1e bd 6c 78 0b bc 1b 52 ac bd aa ef 45 3d
       -0.038730253 -0.0085125975 -0.08414098 0.048324265
0001b0 16 92 3f bd ca 84 f6 3c 9e 1d 7e 3d 97 a0 57 3c
       -0.046770178 0.030092616 0.062039964 0.013160846
0001c0 48 15 e2 bc 1f 5c ab bd ce 20 aa 3d 58 04 d1 3c
       -0.027598038 -0.0836718 0.08307038 0.025514767
0001d0 73 8f 0e 3d 26 a4 87 bb ab 38 9a bd 2a c6 3d bd
       0.034804773 -0.004139441 -0.0753034 -0.046331562
0001e0 6c 9f 88 3d 17 02 bb bc 80 43 b7 bb 0e b8 9a 3d
       0.06671032 -0.022828145 -0.0055927634 0.07554637
0001f0 50 df 07 be a4 13 41 bd af d3 4c bb 5a cf 4b bd
       -0.1326878 -0.04713787 -0.0031254103 -0.049758293
000200 73 de b4 bd c4 e3 bc bd 61 8b 75 3d ad 58 66 3d
       -0.08831491 -0.0922313 0.059947375 0.05623691
000210 b2 62 cc 3c 7d 61 da bd 94 45 e6 3c f5 ae 9a bd
       0.024949405 -0.10663126 0.02810935 -0.07552902
000220 c2 c4 3f bc 29 b7 9c 3d ba b3 45 bd 77 09 77 bd
       -0.011704626 0.076521225 -0.048267104 -0.06031176
000230 5d 67 1a bb a9 f2 3f 3c d4 bc 8d bd b2 1e 21 3d
       -0.0023560144 0.0117155695 -0.06920782 0.039335914
000240 4b b6 1d 3d 05 ad ee bc 31 5b 85 bd d9 ed 0f bc
       0.038503926 -0.029135237 -0.06511534 -0.008784735
000250 ea 9d 64 3c 3d 02 5b 3d b4 a4 77 3d ed f5 90 bd
       0.013953665 0.05346893 0.060459808 -0.070781566
000260 23 0d c7 bd fe be 80 bd 19 5a 8a bc db 77 3d 3d
       -0.097193025 -0.06286429 -0.016888665 0.04625688
000270 32 b8 93 bd 40 c4 e9 bc 3f 07 48 bd 4e 9c 01 bd
       -0.07212867 -0.028535962 -0.048835035 -0.031643204
000280 cf 47 4c bc 3c 02 c2 bc 49 ef 04 3d 94 2f b3 3b
       -0.012468292 -0.023682706 0.032454763 0.0054683182
000290 38 d2 33 bc a3 d7 44 bc d5 df bd bd e8 6b 32 3c
       -0.010975413 -0.012014302 -0.09271208 0.010889985
0002a0 0e 4a 8e bc 7f fc aa 3b 25 d8 80 3d 2f 1c 11 3d
       -0.017369296 0.005218088 0.06291226 0.03542727
0002b0 9e dd a3 bc 5d a4 c9 3d 8c a5 aa bb 1c 8f 48 3d
       -0.020003136 0.09845803 -0.005207723 0.048964605
0002c0 14 2d 11 3d 55 57 79 bd 3a 84 0b 3c b8 c6 a9 bd
       0.03544338 -0.060874302 0.008515412 -0.08289856
0002d0 e9 bb 39 bd 69 84 a2 3d 36 de 8f 3c dd e1 49 3d
       -0.04534522 0.079354115 0.017562013 0.049287666
0002e0 9a 0d de bc 96 bb 64 3d 4e 0d c5 bc ee 59 54 bd
       -0.027106095 0.05584296 -0.024054196 -0.051843576
0002f0 f6 44 ff 3c 86 47 00 3d 89 f5 a1 bd d2 10 bf bd
       0.031160813 0.03131821 -0.0790816 -0.0932938
000300 4c 73 aa 3b e1 80 34 3d c6 eb 5e bd 67 2d 34 3d
       0.0052017327 0.04406822 -0.05442407 0.04398861
000310 60 9e 8a bd a3 3c b9 3d 85 21 7f bd 7d 53 c7 3c
       -0.06768489 0.09044769 -0.062287826 0.024331803
000320 d7 4e ac bd 0c 28 45 bd 68 19 a7 bc ad b4 6e bd
       -0.08413475 -0.048133895 -0.020397857 -0.058277775
000330 d0 a2 55 bd 13 84 a1 3c c2 6c 7d bd ab 70 69 3b
       -0.052157223 0.019716298 -0.061871298 0.0035620134
000340 ef f5 58 3d 08 76 b1 bd 88 d9 ae 3d d0 55 90 bd
       0.052968916 -0.08665091 0.085375845 -0.070476174
000350 9d f3 7c bd b1 45 29 bd ed 9f 69 bd 65 23 8a bb
       -0.061755765 -0.04132623 -0.057037283 -0.004215645
000360 cf 77 6e 3d 95 c1 99 bd 59 97 a8 3c 26 6c 95 3d
       0.058219727 -0.07507626 0.02057998 0.07296018
000370 8c 3b 2a bd a8 80 a5 bc 43 16 87 bd f3 c8 ef 3c
       -0.041560695 -0.02020295 -0.06596043 0.029270625
000380 ad 5c ef bc 36 c5 cf bd 51 7c b0 3d 8a cb 44 bc
       -0.029218996 -0.10145037 0.086174615 -0.012011418
000390 8b 97 16 3d 18 4f 9c bd b9 4b 36 bd 2b ee 2b 3c
       0.036765616 -0.076322734 -0.04450581 0.010493795
0003a0 1a 75 15 bd c4 4d c8 3c 35 90 3d 3d 1d e9 cb bc
       -0.03648863 0.024451144 0.046280105 -0.02489143
0003b0 ce be b4 bd 60 81 5d bd dc bb 42 3c 72 de c0 bd
       -0.088254556 -0.05407846 0.0118856095 -0.09417428
0003c0 33 6c b7 bc 1e 91 ce bd 65 43 8b bd e7 db 04 3d
       -0.02239046 -0.10086273 -0.06799964 0.032436278
0003d0 9c 28 5f bd 67 37 b4 3c e5 cd 99 bb a5 89 56 3d
       -0.054482087 0.021999074 -0.004693734 0.05237736
0003e0 5d 38 94 bd 88 e2 ab 3d c8 82 40 bc 74 f8 a5 3b
       -0.07237313 0.08392817 -0.011749931 0.0050650183
0003f0 4d fb 4d bd 74 71 c6 bb 68 d2 8e bd 8b b9 93 bd
       -0.050288487 -0.006056005 -0.069737256 -0.07213124

fcs.2.bias f4 [128]
000000 f7 6c cf bc e2 ee 20 bd 81 e7 af bd b2 4d 76 3c
       -0.025320513 -0.039290316 -0.08589078 0.015033172
000010 8a 8f 6c 3b c7 ad 93 3d d0 18 17 bd 7c 91 62 bd
       0.0036096298 0.0721088 -0.036888897 -0.055314526
000020 40 78 9d bc 8a 56 09 be 90 88 78 3d 1f 48 98 bc
       -0.019222379 -0.13411918 0.06067711 -0.018589078
000030 13 5c da bd bd 11 cd 3d 08 7a 83 3c 34 b1 61 3e
       -0.10662093 0.10013149 0.0160494 0.22040254
000040 8a 0d d2 3c d7 79 97 3e ab a6 64 3b 48 03 1a 3d
       0.025641222 0.29585144 0.003488938 0.037600785
000050 8b 43 71 ba bf ae 27 bd 31 1c 52 bd b7 8a f6 bd
       -0.0009203485 -0.040938135 -0.051296417 -0.120381765
000060 3f 99 c2 bd de 4e a5 bd 99 9d 2a 3e 63 80 12 3a
       -0.095018856 -0.08071683 0.16661681 0.0005588589
000070 f8 d0 61 3c 22 f7 86 3c ca 78 26 bd 76 73 fb bd
       0.013782732 0.016475264 -0.040642537 -0.12277882
000080 81 fa e6 bd be 94 ee bd e4 6a ee 3d f9 82 30 3d
       -0.112782486 -0.11649464 0.116414815 0.043093655
000090 28 63 38 3c f8 4f 97 3d c8 da 55 3d b3 e6 1e bb
       0.011254109 0.073883 0.0522106 -0.0024246394
0000a0 18 b6 fb bd 33 b6 86 bd 24 6f 19 bd df d1 52 bd
       -0.12290591 -0.065777205 -0.037459508 -0.05146968
0000b0 6d f4 f3 3c 14 34 be bd 50 d3 c9 bd 5a f8 6b bd
       0.029779637 -0.09287277 -0.09854758 -0.057609893
0000c0 25 ce 8e bd 2a 40 a2 bd e9 1e aa 3d ca 86 a5 3c
       -0.06972913 -0.079223946 0.08306677 0.020205874
0000d0 86 4d 73 3c 65 ab 00 3d fc 98 8c bd 76 2f 96 bd
       0.014850026 0.031413455 -0.06865117 -0.07333271
0000e0 b2 fe 9e bd 1f 85 bd 3d 38 3e c1 bd 93 f3 0d bb
       -0.07763423 0.092539065 -0.094356954 -0.0021660074
0000f0 a5 9e 53 bd 39 26 71 bc ea db 03 bc a9 89 eb bc
       -0.051664967 -0.014718586 -0.008048037 -0.028752165
000100 90 63 22 3e 3f 8d 8f bd fd d3 f6 bd 82 c6 b0 3d
       0.15858293 -0.070093624 -0.12052152 0.08631612
000110 66 1b 02 3e 76 61 18 bd d0 fd 2e 3d 65 c8 09 bb
       0.12705764 -0.03720232 0.042722523 -0.0021023985
000120 05 a9 68 bd 8e 1e 35 3d f9 8d b0 bd ad 51 47 bd
       -0.056801815 0.044218592 -0.08620829 -0.048661876
000130 f8 3f c6 3e 04 7c 56 bd d7 38 d4 bd 8c 4a 8c bc
       0.3872068 -0.052364364 -0.10362404 -0.01712539
000140 44 4d 36 3d 38 3d 47 3d f4 28 ab bc 0e 98 82 3c
       0.04450728 0.048642367 -0.020893551 0.015941646
000150 34 ac ec bd 56 e4 63 bd a8 ae 7c 3d c7 b5 bd bc
       -0.11556283 -0.05563768 0.061690003 -0.023157967
000160 65 d0 a3 bc af 51 aa bb 0b e0 f4 ba bc 96 8f bd
       -0.019996831 -0.0051977257 -0.0018682493 -0.07011172
000170 c9 7f 24 3d 98 4b 46 3c 99 28 ac bd a5 ac ae 3c
       0.040160928 0.012102984 -0.08406181 0.021322558
000180 27 e4 91 3d 35 ad bb bd 6a e2 88 3d 55 56 1e bc
       0.07123595 -0.09163896 0.0668381 -0.009664138
000190 97 16 24 bd 28 8a 0e bd 24 e5 6e bd 68 ea 74 bc
       -0.040060606 -0.034799725 -0.058323994 -0.014948465
0001a0 ee 07 91 3d 87 92 ee bd 9d bf dd 3d f3 95 05 bd
       0.070815906 -0.116490416 0.10827563 -0.032613706
0001b0 7d 86 93 3b 57 09 60 3d 58 3e 37 3e 05 e2 03 3b
       0.0045021162 0.054696407 0.17894876 0.0020123732
0001c0 67 24 15 be b2 9f ee bb e3 59 99 bd 23 23 e1 3c
       -0.14564668 -0.0072822208 -0.07487848 0.027482575
0001d0 cc d4 d1 bd 10 eb b3 bc 01 4c ff 3b 68 1e 86 bd
       -0.10245666 -0.021962672 0.007791043 -0.06548768
0001e0 48 44 81 bd 79 c6 12 3d 0d 86 92 bd 35 54 ec 3d
       -0.06311852 0.03583381 -0.071544744 0.11539499
0001f0 bd 31 58 bc 14 ab 3f 3d 1a a1 ab bc 65 59 c0 bc
       -0.013195452 0.046794012 -0.020950843 -0.023480127

fcs.3.weight f4 [128, 128]
000000 c5 8f ba bc 89 40 0a bc 3e a7 52 3d 9e 09 6e bd
       -0.022773633 -0.008438238 0.051429026 -0.05811464
000010 4d 04 17 3d bf 50 7d 3a 5f 96 86 3c 81 85 9e 3d
       0.036869336 0.0009663216 0.016429124 0.077403076
000020 be e9 30 bc e3 6c 00 3d 08 79 ab bd 96 a2 fc bb
       -0.010797916 0.031353842 -0.08372694 -0.0077098114
000030 5c fa 74 3c 1d 56 7a 3b d7 c2 8f bd a4 7c 91 bd
       0.014952268 0.00381983 -0.070195846 -0.071038514
000040 ac 4f ab bd 24 24 0d bc c5 d6 98 bd 79 03 7a 3c
       -0.083648056 -0.008614574 -0.07462839 0.015259617
000050 15 d9 c0 bc c1 05 97 3d a5 af 91 bd f8 52 cd bd
       -0.023541013 0.07374144 -0.0711358 -0.10025591
000060 2e 16 84 3c 52 86 8c 3c c5 30 16 bc 41 a5 6b 3c
       0.016123857 0.017153893 -0.009166901 0.014382661
000070 78 2b 28 bd 72 28 ad bb cb 88 17 bd 05 0a 8d 3d
       -0.04105708 -0.0052843625 -0.03699569 0.06886677
000080 e5 25 96 bd bf c1 e9 3b 8c 74 f3 bc e3 83 0b 3d
       -0.073314466 0.007133692 -0.02971866 0.034061324
000090 97 6d 8f bd 9f d3 47 3d 95 3e 19 3d e7 d1 67 bd
       -0.070033245 0.048785802 0.0374132 -0.056596663
0000a0 8d b6 17 bc 11 8d 1a bd 35 60 a3 3b e1 4a b9 3c
       -0.009259832 -0.037732188 0.004985834 0.022618713
0000b0 5c 4d dd 3b 0b 15 55 bd e8 8f 90 3c 2e da 38 3d
       0.0067536067 -0.05202202 0.017646745 0.045129947
0000c0 a2 43 85 3d 56 6d 57 3d d7 46 21 3d cd 56 6c bd
       0.065070406 0.052594505 0.0393742 -0.057699967
0000d0 75 bb 9a bd ee dc 8a 3c 7c 3e f8 bb bd 3b 85 3d
       -0.07555286 0.01695105 -0.007575808 0.06505535
0000e0 6f 2a c8 3c 26 79 a2 bd a6 58 91 3d 44 3a cf bd
       0.024434296 -0.079332635 0.070969865 -0.10118535
0000f0 29 8f a1 3d 81 b3 87 bd 3d f1 9b 3d 48 25 02 bd
       0.07888634 -0.066260345 0.07614372 -0.031773835
000100 aa 9a a9 bd 58 9d 7e 3d e4 27 10 3d bf 08 1f 3c
       -0.08281453 0.062161773 0.035194293 0.009706675
000110 cd 74 30 3d 0c 7a 2b bd 27 33 9b bd d4 89 b3 bd
       0.04308014 -0.04186444 -0.07578116 -0.08766523
000120 d0 79 49 3d 10 be ed 3c 48 58 39 bc c1 83 96 3c
       0.049188435 0.029021293 -0.011312552 0.018373372
000130 46 ef 29 3d d3 6a 32 bb 53 d8 19 bd ec 31 84 3d
       0.041487955 -0.0027224317 -0.03755982 0.06454834
000140 bc b3 16 3d 8e 25 41 3d 02 1d ca 3b 0d ed 0f 3d
       0.0367925 0.047154956 0.006168009 0.03513818
000150 dd 12 19 3d 8f 67 87 3b c1 53 0e bd ea 76 94 bc
       0.037371505 0.004132218 -0.034747843 -0.018123109
000160 b5 da f5 bc bc 5c ea bc bd bd 38 bd 1c 1c 4b 3d
       -0.030011514 -0.028608672 -0.045102824 0.049587354
000170 45 c7 52 bd 26 1d 25 3c f0 47 89 bc b1 7e 2f 3c
       -0.05145957 0.01007775 -0.016757935 0.010711358
000180 69 89 74 bd a1 49 b9 3c a1 50 54 bd 8d dc 70 3d
       -0.059701357 0.022618117 -0.051834706 0.058804084
000190 aa 49 e7 bd 35 bb 8f 3d 77 ec d6 bc cd fb 6c 3d
       -0.11293347 0.07018129 -0.026235802 0.057857323
0001a0 29 cc 7e bc d6 4b 2d 3d cd 2e 1c bd b2 13 2d bd
       -0.015551605 0.04230865 -0.03813057 -0.04225511
0001b0 b9 cd 42 bd ca f8 75 bd 75 ed 7b 3d e5 48 9c 3d
       -0.047559474 -0.060051717 0.061505754 0.07631091
0001c0 dd fb a0 bd e5 0f 60 3d 4e ff 90 3c 4a 59 e5 bb
       -0.07860539 0.05470266 0.017699864 -0.0069991695
0001d0 d8 ec 86 3d 6b 4a 97 bd d2 d6 7b 3c 64 a5 89 bd
       0.06588143 -0.07387241 0.015371041 -0.06720999
0001e0 04 8e 67 3d 26 e6 b4 bd 74 ac 26 3d 79 9a d4 bb
       0.05653192 -0.0883296 0.040691808 -0.006488141
0001f0 2f f5 08 bc 17 ed 8d bd a1 5b 84 3d bb 69 ab 3d
       -0.008359238 -0.06929987 0.06462789 0.08369776
000200 95 58 8a bc f9 cc 34 bd 90 9a b2 3d 29 28 9e 3d
       -0.016887942 -0.04414079 0.08720887 0.07722504
000210 0d b1 a6 bc 84 16 43 3c 7f 36 9a 3d 94 2d 19 3d
       -0.020348096 0.011907224 0.075299256 0.037396982
000220 84 b5 6d 3d 2a cc d4 bd a5 a2 2d 3d c4 de c2 bd
       0.058034435 -0.10390504 0.042391438 -0.095151454
000230 28 ce 69 3d 2a 71 ba bb b6 33 49 bc 5e 62 61 3d
       0.05708137 -0.0056897597 -0.012280395 0.05502545
000240 ca c9 2a bd 4f a3 81 3d f8 32 d0 bc 50 ff 4b bc
       -0.041696347 0.06329977 -0.025414929 -0.012451008
000250 19 35 85 3a 47 00 7e bd fe 39 c8 bb 50 f9 9f 3d
       0.0010162919 -0.062011983 -0.006110429 0.078112245
000260 f5 25 3b bd d2 90 45 bd ab 9d 99 bd 7a 49 ca bd
       -0.045690496 -0.048233815 -0.07500776 -0.09877296
000270 82 51 b8 bd 90 54 2c bd f0 84 ca bc 6e 30 36 3d
       -0.089999214 -0.042072833 -0.024721593 0.04447978
000280 d8 4d a6 3d 30 42 c4 3c 52 f3 30 3d b0 fa 1b 3d
       0.08120316 0.023957342 0.0432008 0.03808087
000290 6f f9 1e 3d a0 94 6a 3d 2e 92 64 3c 34 cc 91 bd
       0.038812097 0.057270646 0.013950868 -0.07119027
0002a0 87 80 a5 3b 7e e2 0f bd c5 fa 77 bc b7 c7 77 3d
       0.005050722 -0.03512811 -0.015135472 0.060493197
0002b0 a6 f5 16 bd d7 12 62 bd 0f 77 90 3d 5b ad 81 3d
       -0.036855362 -0.05519375 0.070539586 0.06331893
0002c0 49 bb 16 3d 9d 4c 63 bc 79 cf 4e 3d cf 6b cd bb
       0.036799703 -0.0138732465 0.05049083 -0.0062689553
0002d0 34 e6 16 3d 50 83 0d 3c 91 97 7d 3d 6b b1 24 3d
       0.036840633 0.008637264 0.061912123 0.04020826
0002e0 b4 28 30 bd 2d 83 c2 bc b9 88 59 3d ca 19 b8 bd
       -0.043007568 -0.02374419 0.053108905 -0.08989294
0002f0 6e 63 b2 3b b3 0f 89 bd cb b1 a8 3d 5d 94 21 bc
       0.005443982 -0.066924475 0.08237036 -0.009862033
000300 26 dd c1 bb 85 db c8 bc a8 16 2c bd b9 70 72 bd
       -0.0059162555 -0.024518738 -0.042013794 -0.059189532
000310 7e b2 57 3c e1 74 9c 3d fc 68 4a bd f9 09 73 3d
       0.013165114 0.076394804 -0.049416527 0.059335683
000320 4d 3e f0 3b 85 7f 0b bc 56 a5 50 3d 90 6c d5 bc
       0.0073316456 -0.00851429 0.050938927 -0.026052743
000330 d2 ba d4 bd 4b 11 29 bd a8 e5 c9 bd 83 f5 80 3d
       -0.10387196 -0.041276257 -0.098582566 0.06296828
000340 ca dd 91 3b ee 2b 92 3d cf 3c 3c bd 66 a9 41 3d
       0.004451488 0.07137285 -0.04595643 0.04728069
000350 b7 d5 70 3d 2d 77 96 bc d9 fa 62 3d 46 53 c0 bc
       0.058797564 -0.018367374 0.05541501 -0.023477208
000360 67 74 a9 bd 0a b0 79 3d 0c 26 65 bd ff f7 b5 bd
       -0.08274155 0.0609589 -0.055944487 -0.08885192
000370 d7 54 d3 3c e8 a0 55 bd 5d 27 34 3d 95 0d 89 3d
       0.02579729 -0.052155405 0.043982852 0.06692044
000380 3d 34 ed bc c5 48 0a 3d 7d 5a d5 3c a0 e4 c0 3c
       -0.028955573 0.033760805 0.026044125 0.023546517
000390 fc 06 80 bd f3 e1 2d 3d d1 ae 96 3d 50 6a 88 bd
       -0.06251332 0.04245181 0.07357562 -0.066609025
0003a0 5b b4 75 bd 04 f0 8d 3d a4 f4 07 bb af ce 9b bd
       -0.059986454 0.06930545 -0.0020745182 -0.07607781
0003b0 ca 6b 3e 3d 10 c3 55 3d 82 8e 26 3c 36 d2 c2 bd
       0.046489514 0.05218798 0.010165812 -0.09512751
0003c0 25 0a 21 3d 34 eb a4 bc f0 54 96 3d a6 05 3f 3c
       0.039316315 -0.020131685 0.07340419 0.011659062
0003d0 d8 1e 5a 3d 44 06 fa bc 3d 1b 5f 3d 97 e5 40 3d
       0.05325207 -0.030520566 0.054469336 0.047093954
0003e0 3f 38 1c 3d 11 65 7b 3d 4d 71 e9 ba 92 10 3b bd
       0.038139578 0.06137568 -0.0017810256 -0.0456701
0003f0 6a 5b 9d bd a3 8f 74 3d 9f d1 91 3b 54 35 79 3d
       -0.076834515 0.059707295 0.0044500376 0.060841873
